Pytorch入门/model.pt (torch, 250887 bytes, 10 tensors)

conv1.weight f4 [6, 3, 5, 5]
0	0x3bcc0442	0.0062260935
1	0x3dd68e48	0.10476357
2	0x3c93c0ab	0.018036207
3	0xbcbacdec	-0.02280327
4	0x3dc356ae	0.09538017
5	0xbda8c7ed	-0.08241258
6	0x3d20879b	0.039191823
7	0x3db1d9b1	0.086840995
8	0x3d685a98	0.056727022
9	0xbbb7b51b	-0.0056063063
10	0xbdea79b1	-0.11448992
11	0x3dc2b4ab	0.09507116
12	0xbbffa6ed	-0.0078018815
13	0x3d01ab3b	0.03165744
14	0x3da14b89	0.07875735
15	0xbd045fc3	-0.032317888
16	0x3d935b9c	0.071952075
17	0xbcb07ebd	-0.021544809
18	0x3cf9bb5a	0.030484844
19	0xbd6cd506	-0.057820342
20	0xbcd26ead	-0.02568754
21	0xbd319e6b	-0.04336397
22	0xbdb48bab	-0.08815702
23	0x3d2007b5	0.03906985
24	0xbd3af4aa	-0.045643486
25	0xbb50b6ff	-0.0031847355
26	0xbdc40b1a	-0.0957243
27	0x3d9ca619	0.07648868
28	0x3d84fe23	0.06493785
29	0x3d8848bc	0.06654498
30	0xbc6f5cc8	-0.014609523
31	0x3cec89b5	0.028874258
32	0xbdc428b8	-0.09578079
33	0x3b828d31	0.0039841165
34	0x3de86083	0.11346533
35	0x3bb322d1	0.005466797
36	0xbdbc5fcf	-0.091979615
37	0x3db671ef	0.0890845
38	0xbd08942c	-0.033344433
39	0xbce397ad	-0.027782286
40	0xbd635a47	-0.055506017
41	0x3cd45629	0.02591999
42	0x3bdf9aa9	0.006823857
43	0xbde0371c	-0.10948011
44	0xbde5d81c	-0.1122286
45	0x3deb1405	0.11478428
46	0x3d49a144	0.04922606
47	0xbcac7926	-0.021053862
48	0x3cfa600a	0.030563373
49	0xbc186bd0	-0.009303048
50	0xbd064aaf	-0.032786068
51	0x3d529425	0.051410813
52	0xbd9b08a1	-0.07570005
53	0xbdb95850	-0.090500474
54	0x3db65b56	0.0890414
55	0x3c8fbc08	0.017545715
56	0x3cfa7f9f	0.030578433
57	0xbd3dbfe6	-0.046325587
58	0xbd06cf54	-0.032912567
59	0xbaff5e10	-0.0019482989
60	0x3d3c2aaf	0.045939144
61	0xbd8e3244	-0.06943181
62	0xbd03fa10	-0.0322209
63	0xbddf3b2d	-0.10899959
64	0x3d389808	0.045066863
65	0x3ca17833	0.019710636
66	0x3c081d2b	0.008307735
67	0x3baa524d	0.0051977993
68	0xbc3eac5e	-0.011637775
69	0x3cbcfe5b	0.023070505
70	0xbdc2ade1	-0.09505821
71	0xbdaeab42	-0.085287586
72	0x3dae3b30	0.08507383
73	0x3d8fa7ca	0.07014425
74	0xbd5cf584	-0.05394508
75	0x3d018210	0.031618178
76	0xbdc62b68	-0.09676248
77	0xbdb60dc1	-0.08889342
78	0x3cec577a	0.028850306
79	0x3ddb4418	0.10706347
80	0xbde4df30	-0.11175382
81	0x3d05d3c7	0.03267267
82	0x3cd374ff	0.025812624
83	0x3da362fe	0.07977866
84	0xbcbb1dd4	-0.022841372
85	0xbde06308	-0.10956389
86	0xbd394ef3	-0.045241307
87	0xbd844099	-0.064576335
88	0xbcd9099f	-0.026493846
89	0x3b10d7f9	0.0022101386
90	0x3b511fd8	0.003190985
91	0xbbe1c561	-0.0068899845
92	0xbdc23a8f	-0.094838254
93	0xbd28c416	-0.041202627
94	0xbbbe9b1b	-0.00581683
95	0xbd8d6a61	-0.06905056
96	0xbbf93302	-0.0076049576
97	0x3d8f8f18	0.07009715
98	0xbccff9e2	-0.025387708
99	0x3dd7e5ea	0.105418995
100	0xbde0cf6a	-0.10977061
101	0xbd1058fc	-0.035241112
102	0xbdda87d0	-0.106704354
103	0x3ca0e2c1	0.019639375
104	0x3cbe6578	0.023241743
105	0x3d8dd6fb	0.0692577
106	0x3d9ed324	0.07755116
107	0xbd79f8e9	-0.061028395
108	0xbc24af9e	-0.010051636
109	0x3ca680c2	0.020325068
110	0x3da41aed	0.08012948
111	0x3d94c563	0.07264211
112	0xbd7b8817	-0.061409082
113	0x3d949f39	0.07256932
114	0xbd5e24c1	-0.05423427
115	0x3ca88ddc	0.020575456
116	0xbdc65950	-0.09685004
117	0x3dbecd4c	0.09316501
118	0xbdcef79f	-0.10105824
119	0x3c9ab177	0.01888345
120	0xbd6ec503	-0.058293354
121	0x3dcb57cc	0.09928855
122	0x3d996657	0.07490223
123	0x3dc4ecb6	0.096154615
124	0xbda3c0f3	-0.079957865
125	0xb98bbbb3	-0.00026651993
126	0xbcf1fb24	-0.029538698
127	0xbd0df3b2	-0.034656234
128	0xbcef3267	-0.029198838
129	0x3d9be206	0.0761147
130	0x3d4f4b35	0.050608832
131	0x3d07fc63	0.03319968
132	0x3daa7056	0.08322208
133	0xbd9e0088	-0.07714945
134	0x3dc834d0	0.09775698
135	0x3d32efcf	0.04368573
136	0x3de3a6ca	0.11115797
137	0xbc90f25c	-0.017693691
138	0x3dcb8eab	0.09939321
139	0xbdd4fe5a	-0.10400076
140	0x3b7e03e2	0.0038759639
141	0x3db4dd43	0.08831265
142	0x3ccd06a7	0.025027586
143	0x3ccd6d04	0.025076397
144	0x3d343d88	0.044003993
145	0xbd538637	-0.05164167
146	0x3d74d0be	0.059769385
147	0xbd7fce50	-0.062452614
148	0xbd8091cb	-0.06277808
149	0xbd0b2b4e	-0.033976845
150	0x3de1c917	0.11024683
151	0xbd8b3da2	-0.06798865
152	0xbdd73ad6	-0.10509269
153	0xbd13c860	-0.036079764
154	0xbd7c3c96	-0.061581217
155	0x3d715a99	0.05892429
156	0x3c58e72e	0.013238711
157	0x3daceda9	0.084437676
158	0xbdd24c3f	-0.10268449
159	0xbd8a9b13	-0.06767859
160	0x3dd66654	0.10468736
161	0x3d71c3c6	0.059024595
162	0x3d986e16	0.07442872
163	0xbd59671b	-0.053076845
164	0x3d609014	0.054824904
165	0x3da59edd	0.080869414
166	0x3dddcc6a	0.108300045
167	0xbddc3b35	-0.1075348
168	0x3c0d26bc	0.008615192
169	0x3ddd3634	0.10801354
170	0xbbe1f31b	-0.0068954355
171	0x3daf0a3d	0.08546875
172	0x3db10a13	0.086445
173	0xbcbe1f52	-0.023208294
174	0x3c97dcb8	0.018537864
175	0xbd3e7498	-0.04649791
176	0x3d839e8f	0.06426727
177	0x3dcaeb84	0.09908202
178	0xbd1114db	-0.03542028
179	0x3c569173	0.013096201
180	0x3d3fb77e	0.04680585
181	0xbd0a1b75	-0.03371759
182	0x3c7f3374	0.015576232
183	0x3de3ecb5	0.11129133
184	0x3d138edf	0.036024924
185	0xbd20c4ca	-0.039250173
186	0xbd9a52ac	-0.075353
187	0xbdbf26c4	-0.09333566
188	0xbde2dfd4	-0.11077848
189	0xbd48a3e1	-0.048984412
190	0xbd83bf78	-0.06433004
191	0x3d8112a8	0.063023865
192	0xbd6ad675	-0.05733343
193	0x3d9d0210	0.07666409
194	0xbde8afe7	-0.11361676
195	0xbdeb134e	-0.114782915
196	0xbdd15c3f	-0.10222673
197	0x3de64804	0.11244205
198	0x3d18fd22	0.03735078
199	0xbd8f27a7	-0.06989985
200	0x3d032f99	0.032027815
201	0x3da668b8	0.08125442
202	0xbcb82a2a	-0.022481043
203	0xbdce5e6c	-0.10076603
204	0xbccb7f96	-0.024841111
205	0x3d32b0c6	0.043625616
206	0x3d228353	0.03967602
207	0x3c6415db	0.013921226
208	0x3d826fcc	0.0636898
209	0x3d21d398	0.039508432
210	0xbde5fdba	-0.11230035
211	0x3c06b117	0.008220932
212	0x3d201e53	0.03909142
213	0x3d0d4156	0.034486137
214	0x3dc51828	0.09623748
215	0xbdaf51cb	-0.08560523
216	0x3cdaf697	0.026728911
217	0xbda6da26	-0.08147077
218	0x3de88c34	0.113548666
219	0xbdec1a28	-0.115284264
220	0xbbb9c4cd	-0.0056692124
221	0xbde223b2	-0.110419646
222	0xbd166b0a	-0.036723174
223	0x3cfb1e82	0.030654196
224	0xbd6b7825	-0.057487626
225	0x3c394bca	0.011309573
226	0x3d22b601	0.039724354
227	0x3b53720d	0.0032264024
228	0x3d374f5c	0.044753417
229	0x3cd9b7ce	0.026576903
230	0x3bb18216	0.005417119
231	0x3d3eae3e	0.04655289
232	0xbde96071	-0.11395348
233	0x3d879652	0.06620468
234	0x3d8683c3	0.065681
235	0xbd1efb36	-0.038813792
236	0x3d9e2fa8	0.077239335
237	0xbd592c82	-0.05302096
238	0xbcaf461a	-0.021395732
239	0x3c9ef595	0.019404212
240	0xbda8e333	-0.0824646
241	0xbda6111b	-0.08108731
242	0x3d824e18	0.063625515
243	0x3d829263	0.06375577
244	0x3d12d91c	0.035851583
245	0xbd748a94	-0.05970247
246	0x3de27b81	0.11058713
247	0xba334909	-0.0006839191
248	0xbdeb7991	-0.11497796
249	0x397ca250	0.00024093059
250	0xbd5e49c0	-0.054269552
251	0x3d5f095b	0.05445228
252	0xbdc32035	-0.095276274
253	0x3cf5ee50	0.030020863
254	0x3de90ff6	0.113799974
255	0xbd486058	-0.048920006

conv1.bias f4 [6]
0	0x3dea1b7a	0.11431022
1	0xbc31ebdb	-0.010859455
2	0x3cf591ae	0.029976692
3	0xbd9041b2	-0.070437804
4	0x3d4b7dda	0.04968057
5	0x3d565fba	0.052337386

conv2.weight f4 [16, 6, 5, 5]
0	0xbb9f47d7	-0.004860859
1	0x3da2872b	0.079359375
2	0x3c5e4b0a	0.013567695
3	0xbd0fdd29	-0.035123024
4	0x3d76d79f	0.060264226
5	0xbba53ab0	-0.0050423965
6	0x3cdf7c5e	0.027280983
7	0x3d2d57f5	0.04232021
8	0x3d9bd041	0.07608081
9	0x3c8f996f	0.017529218
10	0xbcbbd152	-0.02292696
11	0xbd80d749	-0.062910624
12	0xbd7b6468	-0.06137505
13	0x3da680c8	0.08130032
14	0x3d754bdb	0.059886795
15	0x3b601e13	0.0034197613
16	0xbd23731d	-0.039904702
17	0xbda54425	-0.08069638
18	0x3d3fcfb0	0.046828926
19	0xbc782770	-0.015146121
20	0xbc0c66ac	-0.008569401
21	0xbda18558	-0.078867614
22	0x3da1e920	0.07905793
23	0xbd922b00	-0.07137108
24	0x3cb579b3	0.022152757
25	0x3d77b1a8	0.06047216
26	0xbd02cfa9	-0.03193632
27	0xbda428c1	-0.08015586
28	0xbd5ca270	-0.05386585
29	0xbd5caa95	-0.053873617
30	0xbcdeeb03	-0.027211672
31	0xbd9f1f6e	-0.077696666
32	0xbd7338fb	-0.059380513
33	0x3da38252	0.07983841
34	0x3da3b573	0.07993593
35	0x3c2b791a	0.010465885
36	0xbd53a251	-0.05166847
37	0xbd53a488	-0.05167058
38	0x3cea7b96	0.028623383
39	0x3d8b475c	0.0680072
40	0x3d02d54b	0.031941693
41	0x3c39560c	0.011312019
42	0x3da48652	0.08033432
43	0xbc5a548a	-0.01332582
44	0xbb7d0430	-0.0038607232
45	0xbd13b0f2	-0.03605742
46	0x3d8e9e32	0.06963767
47	0x3d51aa21	0.05118764
48	0xbd449e7a	-0.048002698
49	0x3a5c4fab	0.00084042054
50	0xbd1296a0	-0.03578818
51	0xbd73aed0	-0.059492886
52	0x3d23d8df	0.040001746
53	0xbcf1611e	-0.029465254
54	0x3940a1c8	0.00018370815
55	0x3d6f9053	0.058487248
56	0x3bc263ac	0.005932292
57	0x39e43746	0.0004352873
58	0x3c289daf	0.010291501
59	0xbd8687bf	-0.0656886
60	0x3d42ade7	0.047529127
61	0x3d898ab2	0.06715907
62	0x3cb3aeaa	0.021933872
63	0xbd8247cb	-0.0636135
64	0xbd8c8020	-0.068603754
65	0xbd3d132d	-0.046160866
66	0x3d9b397d	0.075793244
67	0x3d0ae75b	0.033912044
68	0xbd9dc18f	-0.07702934
69	0x3d76edc5	0.06028535
70	0xbccdcf81	-0.02512336
71	0xbd38b625	-0.04509558
72	0x3b528d06	0.0032127514
73	0xbd771d84	-0.060330883
74	0x3d1ffffb	0.03906248
75	0x3d6a97a7	0.057273533
76	0xb9c425e3	-0.0003741226
77	0x3c748005	0.0149231
78	0xbd47b89f	-0.048760053
79	0xbc81b353	-0.015832579
80	0x3a8c7a6e	0.0010717639
81	0x3d60ad22	0.054852612
82	0x3c2210ce	0.009891702
83	0x3d24ed8a	0.040265597
84	0x3d883d65	0.06652335
85	0xbd4d24c7	-0.0500839
86	0xbd901967	-0.07036095
87	0xbb0d05b9	-0.0021518304
88	0xbcd0bd95	-0.025481025
89	0xbd8fccd0	-0.07021487
90	0xbce861c8	-0.028366938
91	0xbd16fd12	-0.03686244
92	0xbd61b399	-0.05510292
93	0xbd7ae57b	-0.061254006
94	0xbda253bc	-0.07926127
95	0xbda256db	-0.079267226
96	0x3a9f982f	0.0012176092
97	0x3ce06007	0.02738954
98	0x3da4fa29	0.08055527
99	0x3d364677	0.044500794
100	0x3d53cdb1	0.051709834
101	0x3d8ae08c	0.0678111
102	0xbd25d7c3	-0.04048897
103	0xbd3d7673	-0.04625554
104	0xbd99b9e3	-0.07506158
105	0x3d98cb8a	0.07460697
106	0xbd71bf89	-0.059020553
107	0x3d06d624	0.032919064
108	0x3d7a3101	0.06108189
109	0xbc366590	-0.011132613
110	0x3d40961b	0.04701815
111	0x3c2ad24b	0.010426114
112	0xbd5ee50d	-0.05441766
113	0x3d92ca07	0.0716744
114	0xbc2d53d0	-0.0105790645
115	0x3d960ba0	0.07326436
116	0xbd5134ba	-0.051075675
117	0xbd732824	-0.059364453
118	0xbca2db61	-0.019879999
119	0xbd1d6f8c	-0.038436458
120	0x3cd8eb77	0.026479466
121	0x3d4950b7	0.04914924
122	0xbda3f1d8	-0.080051124
123	0xbd8cbeef	-0.06872355
124	0xbd93fea4	-0.07226303
125	0x3d91d20e	0.07120143
126	0xbd0fd40c	-0.035114333
127	0x3b8ac00d	0.00423432
128	0x3d90624d	0.070499994
129	0xbb558629	-0.0032581186
130	0x3d6b3835	0.05742665
131	0xbc85c251	-0.016328009
132	0x3d8be136	0.06830065
133	0x3c91343c	0.017725103
134	0xbd4f4513	-0.050602984
135	0x3d2583a2	0.040408738
136	0x3c20c7a3	0.009813222
137	0xbda352fb	-0.07974812
138	0x3ceb4619	0.028719949
139	0x3d542d92	0.05180127
140	0xbd466102	-0.048432358
141	0xbd0c1b25	-0.034205575
142	0xbcfa254c	-0.030535363
143	0x3d4fa1af	0.050691303
144	0xbd94eb42	-0.07271434
145	0xbda04b88	-0.078269064
146	0x3d8122e3	0.06305482
147	0xbd8468fc	-0.06465337
148	0xbb8d7776	-0.0043172194
149	0x3c8a9420	0.016916335
150	0xbd7a8142	-0.061158426
151	0xbd3fd5da	-0.046834804
152	0xbd50d1da	-0.05098138
153	0xbd8c5555	-0.06852213
154	0x3d10ea1b	0.03537951
155	0xbd5e3328	-0.054248005
156	0x3d71783e	0.058952563
157	0xbd90f29d	-0.07077525
158	0xbcaa29bf	-0.02077186
159	0xbd9ceeee	-0.0766276
160	0x3baf915d	0.005357905
161	0x3d11e062	0.03561438
162	0x3d1809d5	0.03711875
163	0x3cf555f6	0.029948216
164	0x3d68da6d	0.056848932
165	0x3a5bcd07	0.00083847385
166	0xbd872f0d	-0.06600771
167	0xbd9fdcd9	-0.07805795
168	0xbd12b333	-0.03581543
169	0x3d57093b	0.052499037
170	0x3d6b9910	0.05751902
171	0xbc94d658	-0.018168613
172	0x3d961e91	0.07330049
173	0x3d5721ec	0.052522585
174	0xbbaca94a	-0.0052692043
175	0xbca508f7	-0.020145876
176	0x3d36284c	0.044472024
177	0x3d6d9f0d	0.05801301
178	0x3d089827	0.03334823
179	0xbd561c6b	-0.052273195
180	0xbda203cf	-0.07910883
181	0x3da0d12b	0.078523956
182	0xbd9e29a1	-0.07722784
183	0x3ac7b12e	0.0015235299
184	0x3d3f2faa	0.046676315
185	0xbd142195	-0.03616484
186	0xbd85b1e2	-0.06528069
187	0xbcf1782a	-0.029476244
188	0x3d9ffc3c	0.07811782
189	0x3d596103	0.053071033
190	0xbd934fa4	-0.071929246
191	0x3da24655	0.07923571
192	0xbd9c22eb	-0.076238476
193	0xbd6e9feb	-0.05825798
194	0xbca2c4a4	-0.019869156
195	0xbda4f721	-0.080549486
196	0xbcf98282	-0.030457739
197	0x3cdadcc1	0.026716592
198	0x3c41577e	0.011800645
199	0xbd775826	-0.0603868
200	0xbd9a2c0f	-0.07527935
201	0xbb3d0214	-0.002884035
202	0xbc4553fe	-0.012043951
203	0x3d58949c	0.0528761
204	0x3c0bbeb8	0.008529358
205	0xbd882066	-0.066468045
206	0x3d928820	0.0715487
207	0xbd679d99	-0.05654678
208	0x3d969266	0.07352142
209	0x3c332620	0.010934383
210	0x3af3bdfa	0.0018596046
211	0x3c311f7c	0.010810729
212	0xbd3bf3cf	-0.04588681
213	0xbd72bd40	-0.059262514
214	0x3cfe18a7	0.031017615
215	0xbd33caf2	-0.043894716
216	0x3da6e1b2	0.08148517
217	0xbd2100ca	-0.039307393
218	0x3c5de5d5	0.013543566
219	0x3cf12ccd	0.029440308
220	0x3cefa4b3	0.02925334
221	0x3cb35318	0.021890208
222	0xbd8d0a31	-0.068867095
223	0xbd53841e	-0.05163967
224	0x3b149d50	0.0022676773
225	0xbd1c85b7	-0.038213458
226	0x3d8c4436	0.06848948
227	0x3d6f60bf	0.058441874
228	0x3c8bc4c2	0.017061595
229	0xbcb1a425	-0.021684716
230	0xbd578e19	-0.05262575
231	0x3d8016c5	0.06254343
232	0xbd4a9e51	-0.04946739
233	0xbd874481	-0.06604863
234	0x3d467e0b	0.048460048
235	0x3d929e92	0.07159151
236	0x3d8a7b94	0.06761852
237	0x3d968813	0.07350173
238	0xbd9c74fb	-0.076395
239	0x3d5d8e8d	0.054091025
240	0xbd5b8db5	-0.05360194
241	0xbda1caec	-0.079000324
242	0xbc172c25	-0.0092268335
243	0x3d1df0c2	0.038559683
244	0x3d2cf0ae	0.042221718
245	0x3c43c666	0.011949157
246	0x3da28c33	0.07936897
247	0x3d20f642	0.03929735
248	0x3cd33e05	0.02578641
249	0x3cbc9dc6	0.023024451
250	0x3d4a855a	0.04944358
251	0xbd944aea	-0.07240851
252	0xbc83976d	-0.016063416
253	0xbd954a60	-0.072895765
254	0x3d9cfe59	0.076657005
255	0x3c30fc37	0.01080232

conv2.bias f4 [16]
0	0x3c8d4845	0.017246375
1	0x3d94cdd1	0.07265819
2	0xba048907	-0.0005055819
3	0xbd276f8a	-0.040877856
4	0x3d698abb	0.05701707
5	0xbd899a8d	-0.06718931
6	0x3cb5c868	0.022190288
7	0x3d7912d0	0.060808957
8	0xbc4ddd1a	-0.012564922
9	0xbd6c55c9	-0.057699
10	0xbcab3bd8	-0.02090256
11	0xbd27e767	-0.040992167
12	0x3d9db18b	0.07699879
13	0xbd537412	-0.051624365
14	0xbc673dc2	-0.014113845
15	0xbd8e0310	-0.06934178

fc1.weight f4 [120, 400]
0	0x3cec5490	0.028848916
1	0xbb1e5100	-0.0024157166
2	0xbce42c63	-0.027853196
3	0xbcc4a7b3	-0.024005746
4	0xbc24f0b3	-0.010067153
5	0x3c7c8f3a	0.015415007
6	0x3d001d23	0.031277787
7	0x3d46355a	0.048390724
8	0xbba72f0d	-0.0051020444
9	0x3b325bb3	0.0027215302
10	0xbc08c9c7	-0.008348889
11	0xbce9fada	-0.028561998
12	0x3ca096dd	0.019603187
13	0x3ce8750a	0.028376121
14	0x3cbd1127	0.023079468
15	0x3d428973	0.047494363
16	0xbcf3603d	-0.029708976
17	0x3c873773	0.016505932
18	0x3d1e7c9d	0.03869306
19	0x3c27ab4d	0.010233712
20	0x3d4c2797	0.049842443
21	0xbcf5a233	-0.02998457
22	0x3c18d12d	0.009327215
23	0xbc06c127	-0.008224762
24	0xbd3791c8	-0.044816762
25	0x3c092e5a	0.0083728675
26	0x3d4881fb	0.048952084
27	0x3d0f2957	0.034951534
28	0x3ccdf6b7	0.025142057
29	0x3bff9e1a	0.0078008296
30	0xbcd36a27	-0.025807453
31	0xbc883533	-0.01662693
32	0x3d10ac5b	0.03532062
33	0xbcec61d0	-0.028855234
34	0x3d28fa37	0.04125425
35	0xbcb59f63	-0.022170728
36	0x3c745ae7	0.014914251
37	0xbd2d7260	-0.042345405
38	0x3c92ce4d	0.017920638
39	0xbd44f56f	-0.048085626
40	0xbd19187b	-0.037376862
41	0x3d0c823d	0.034303892
42	0x3d10d1a5	0.035356183
43	0x3cce0f00	0.025153637
44	0xbcc4a7ba	-0.02400576
45	0xbbb04b80	-0.005380094
46	0xbd4562e5	-0.048190016
47	0x3b5c5780	0.003362149
48	0x3c98b877	0.018642647
49	0x3d06c208	0.032899886
50	0xbbf898c0	-0.0075865686
51	0x3ca6881d	0.020328576
52	0x3ccb8c5d	0.024847204
53	0x3a8ff100	0.0010981858
54	0x3ac97f67	0.0015373052
55	0xbd11ef77	-0.035628762
56	0x3ce9d28a	0.028542776
57	0x3c9a9fe7	0.018875076
58	0x3d49f652	0.049307175
59	0xbc909247	-0.017647875
60	0x3c1f56cd	0.009725285
61	0x3cef4b37	0.02921067
62	0xbd18cd30	-0.037305057
63	0x3b893acd	0.004187918
64	0xbc87ed87	-0.016592754
65	0x3c3dd58d	0.011586559
66	0xbbfc6680	-0.0077026486
67	0xbcae6e5d	-0.02129286
68	0xbd3d8175	-0.046266038
69	0x3cd0f1ad	0.025505865
70	0xbd119beb	-0.035549086
71	0x3d15d1a2	0.036576875
72	0x3cdd8f5a	0.027045894
73	0x3caf903a	0.021431077
74	0xbce3df63	-0.02781648
75	0x3d13d3c8	0.036090642
76	0x3d1b9dca	0.037992276
77	0xbcb60023	-0.022216862
78	0x3c082287	0.008309013
79	0x3d06921a	0.032854177
80	0x3cabef77	0.02098821
81	0xbd2d93e5	-0.04237737
82	0xbd160305	-0.036623973
83	0xbcefc197	-0.029267116
84	0x3cce76ed	0.025203193
85	0xbcc2cb3a	-0.023778547
86	0xbc862150	-0.016373307
87	0x3d0b59e3	0.03402127
88	0xbc36010d	-0.011108649
89	0xbd0e6397	-0.034762945
90	0xb9867f33	-0.00025653242
91	0x3d46f6d5	0.04857524
92	0xbc0912da	-0.008366311
93	0xbbe46e0d	-0.006971127
94	0xbcf58bc7	-0.029973878
95	0x3ca56cb7	0.02019344
96	0x3cd5399a	0.026028443
97	0x3cc02b5d	0.023458177
98	0x3d13fca0	0.036129594
99	0x3d4301b5	0.04760905
100	0xbcc85687	-0.024455322
101	0x3d164070	0.036682546
102	0x3cbcf34a	0.023065228
103	0x3cc572c7	0.024102582
104	0xbb751200	-0.0037394762
105	0x3c31c1b3	0.010849404
106	0x3d1c556f	0.038167413
107	0x3cb786fd	0.022403235
108	0x3ce76ef0	0.028251141
109	0x3cddd88a	0.027080793
110	0xbcde394d	-0.027126933
111	0xbc647560	-0.013944
112	0xbcc0a927	-0.023518158
113	0xbc1e3d80	-0.009658217
114	0x3d13645f	0.035984393
115	0x3d38a7d3	0.045081925
116	0x3d22de65	0.039762873
117	0x3c84ad5a	0.016195942
118	0x3cf7d5d3	0.030253327
119	0x3c90cffd	0.017677302
120	0x39a1be67	0.00030850174
121	0x3d35d5a2	0.04439319
122	0x3d2dcd7a	0.042432286
123	0x3bb2799a	0.005446625
124	0x3ce09053	0.02741257
125	0xbd29a187	-0.04141381
126	0xbc9d956a	-0.019236285
127	0xbd115c55	-0.035488445
128	0xbc3376c7	-0.010953612
129	0xbccb5533	-0.0248209
130	0x3ccc9e17	0.024977727
131	0xbc2b43c0	-0.010453165
132	0xbcc52c20	-0.024068892
133	0x3a75b6cd	0.0009373248
134	0x3d3f0b57	0.046641674
135	0x3c20561a	0.009786153
136	0x3c51beed	0.012801868
137	0x3d44c880	0.048042774
138	0x3c9b5f6a	0.018966395
139	0x3cec21f3	0.028824782
140	0xbceeb513	-0.029139077
141	0x3d177ae5	0.036982436
142	0xbc7a7d0d	-0.0152886035
143	0xbd495757	-0.04915556
144	0x3c5124ba	0.012765104
145	0x39243e67	0.00015663505
146	0xbc83cd23	-0.016089028
147	0x3bad090d	0.00528062
148	0x3a41e000	0.00073957443
149	0x3be5fb40	0.0070184767
150	0xbcbb0ffa	-0.022834767
151	0xbc808753	-0.015689528
152	0x3b9fc0cd	0.0048752786
153	0x3c9796d7	0.018504543
154	0x3d4ad397	0.049518194
155	0x3c268cda	0.010165418
156	0xbb840c67	-0.004029799
157	0xbc737453	-0.014859277
158	0x3bd618cd	0.006533718
159	0xbcf1f5ed	-0.029536212
160	0x3cde9993	0.02717284
161	0x3b57851a	0.0032885731
162	0xbd39fa78	-0.04540488
163	0xbc9d09da	-0.019169737
164	0xbccb2543	-0.024798041
165	0x3a734600	0.0009280145
166	0x3c9407cd	0.018070126
167	0xbd0ba8e5	-0.034096617
168	0xbd06e5df	-0.032934066
169	0x3ca933a7	0.020654513
170	0xbd20391b	-0.03911696
171	0xbc7ecc1a	-0.015551591
172	0x3cb5231d	0.02211147
173	0x3c783c13	0.015151042
174	0xbcfdab23	-0.030965393
175	0xbd2f8bbb	-0.042857867
176	0xbb939a73	-0.0045044958
177	0x3cabf0fa	0.02098893
178	0x3ca62810	0.020282775
179	0xbd2cd565	-0.042195696
180	0x3a0366cd	0.0005012572
181	0x3c1304e0	0.00897333
182	0x3c861093	0.016365325
183	0x3d2cdadf	0.04220092
184	0x3d3b4d4b	0.04572801
185	0x3d28050d	0.04102044
186	0x3d34c60a	0.044134177
187	0xbd18de52	-0.037321396
188	0xbac61833	-0.0015113413
189	0xba6f9f9a	-0.0009140909
190	0x3cdf1b10	0.027234584
191	0x3d0df6b2	0.034659095
192	0x3d0316e5	0.032004256
193	0xbcefb4c3	-0.029260999
194	0x3bd85cb3	0.0066028475
195	0xbcbe450a	-0.02322628
196	0x3c960737	0.018313987
197	0x3d194f3d	0.037429083
198	0x3ce888b7	0.028385503
199	0xbd39cf8d	-0.04536395
200	0xbc9791d7	-0.018502159
201	0xbd3ffc33	-0.046871375
202	0xbd336c40	-0.043804407
203	0x3d07fefd	0.03320216
204	0x3cabe7bd	0.020984525
205	0x3d2ea113	0.04263408
206	0xbab53900	-0.0013826191
207	0xbc82993d	-0.01594221
208	0x3ce51d67	0.027968122
209	0x3d271be5	0.040798087
210	0x3bc96a1a	0.0061466815
211	0x3bd8861a	0.006607783
212	0xbce85417	-0.02836041
213	0xbc87403a	-0.016510118
214	0xbd0b0172	-0.033936925
215	0x3c6a1213	0.014286536
216	0xbc00c39a	-0.007859135
217	0x3d324a8d	0.04352813
218	0xbc3e3027	-0.01160816
219	0x3c52a847	0.012857503
220	0xbcb8ffa3	-0.022582835
221	0x3bf9d180	0.0076238513
222	0x3cfe7f1d	0.031066472
223	0xbc739d20	-0.0148690045
224	0x3d43b96f	0.047784265
225	0x3c88737a	0.016656626
226	0x3cfb8fc7	0.030708207
227	0x3d172efb	0.03691004
228	0x3d250c52	0.040294953
229	0x3bd9969a	0.0066402676
230	0x3cf8ee80	0.030387163
231	0x3c97fe10	0.018553764
232	0xbb766633	-0.0037597537
233	0x3d1f9f43	0.038970243
234	0x3d0dd77b	0.034629326
235	0xbd3e99b5	-0.046533305
236	0xbb25ecb3	-0.0025318086
237	0xbae6a79a	-0.0017597557
238	0x3bf2c60d	0.0074088634
239	0xbd4990a3	-0.049210202
240	0x3d0485a2	0.032354005
241	0xbb7c6b4d	-0.0038516105
242	0x3a55f467	0.0008161724
243	0x3ad3329a	0.0016113103
244	0xbd48071a	-0.048834898
245	0x3cc20373	0.023683285
246	0xbd4643ca	-0.048404492
247	0xbcb47827	-0.02202995
248	0x3d38f4a7	0.045155194
249	0xbd28bf52	-0.041198082
250	0x3cc5a34a	0.024125714
251	0xbcfd53f3	-0.03092382
252	0xbcc19980	-0.023632765
253	0xbcb2568a	-0.02176978
254	0x3d1e4693	0.038641524
255	0x3d2cd072	0.042190976

fc1.bias f4 [120]
0	0xbd244e98	-0.040114015
1	0x3d35dcc0	0.044399977
2	0xbc19b5ed	-0.009381753
3	0xbcb64d9d	-0.022253806
4	0x3d067d28	0.032834202
5	0x3c8feb07	0.017568124
6	0xbc8be9fa	-0.017079342
7	0xba945100	-0.0011315644
8	0x3c65774d	0.014005494
9	0xbc3d9980	-0.011572242
10	0x3bde5d73	0.0067860424
11	0xba2194cd	-0.00061638356
12	0xbba68d1a	-0.0050827386
13	0x3d112cad	0.035442997
14	0xbc1c9ced	-0.009558898
15	0xb7c13333	-2.3031234e-05
16	0x3cffcb87	0.03122498
17	0x3b31c900	0.0027127862
18	0xba7f4ecd	-0.000973922
19	0x3ce484ca	0.02789535
20	0x3d4aba3f	0.049494024
21	0xba93b89a	-0.0011270226
22	0xbd2b68f7	-0.04184815
23	0xbceed2fa	-0.029153336
24	0xbd2cd567	-0.042195704
25	0x3b7801e7	0.003784293
26	0x3cf8a1da	0.030350614
27	0x3bbd2bcd	0.0057730437
28	0xbd27a7df	-0.04093158
29	0xbca6ccaa	-0.020361263
30	0x3c9e07ad	0.01929077
31	0xbd35d26b	-0.044390123
32	0xbce10d9a	-0.027472306
33	0x3d366e87	0.044539
34	0xbc81d227	-0.015847279
35	0x3d134caa	0.035961784
36	0xbcbecdfd	-0.023291582
37	0xbc902d17	-0.017599626
38	0x3d0b93cd	0.0340765
39	0x3cb31317	0.021859689
40	0x3d30370d	0.04302125
41	0x3c2beea7	0.010493911
42	0x3c34b700	0.011029959
43	0xbba41c33	-0.0050082444
44	0x3c96fa27	0.018429829
45	0xbcdc8fdd	-0.026924068
46	0xbb6274b3	-0.0034554421
47	0xbba88300	-0.0051425695
48	0xbd159d18	-0.03652677
49	0x3bd7e280	0.00658828
50	0x3b416867	0.0029511692
51	0x3c0192da	0.007908547
52	0x3c099200	0.0083966255
53	0xbb2af467	-0.0026085617
54	0xbd25b9ba	-0.040460326
55	0xbd423517	-0.04741391
56	0x3cf8aaf3	0.030354952
57	0xbd1fe53a	-0.039036967
58	0x3d08ecc8	0.033428937
59	0xbce17733	-0.027522659
60	0x3c764340	0.015030682
61	0xbbfdb6a7	-0.007742721
62	0x3c8a1e67	0.0168602
63	0x3d053eeb	0.032530706
64	0xbc0f7bd3	-0.008757549
65	0x3ce77ff7	0.02825926
66	0xbd3a119b	-0.045426946
67	0x3d2ea3d0	0.042636693
68	0x3c941677	0.018077118
69	0x3d44b1f0	0.048021257
70	0x3d10b5c8	0.03532961
71	0xbd3004f0	-0.04297346
72	0x3d27fd63	0.041013133
73	0x3bf29433	0.0074029206
74	0xbd10f1f8	-0.03538701
75	0xbd1dfff8	-0.03857419
76	0x3cf59227	0.029976917
77	0xbd25ba2f	-0.04046076
78	0x3b445c9a	0.0029962421
79	0xbd35c320	-0.04437554
80	0x3ca7468a	0.020419378
81	0x3cd8eff7	0.026481612
82	0xbbcd3ca7	-0.006263334
83	0x3bbbca8d	0.005730933
84	0x3d3f359a	0.046681978
85	0xbd098882	-0.03357745
86	0xbd1818c3	-0.03713299
87	0x3c585b33	0.013205337
88	0xbca84267	-0.020539476
89	0xbcdf3aca	-0.027249712
90	0xbd086be2	-0.03330601
91	0xbcf2b2da	-0.029626299
92	0xbbd76133	-0.0065728663
93	0x3c931b5d	0.017957384
94	0xbc50a1e7	-0.012733913
95	0x3c9b0c03	0.018926626
96	0xbb7fb533	-0.0039017915
97	0xbcff8f9a	-0.031196404
98	0x3c4156cd	0.01180048
99	0xbd2b48e2	-0.041817553
100	0xbd0a49ca	-0.033761777
101	0x3ca5c1cd	0.020234013
102	0xbd41dd93	-0.04733045
103	0x3d425530	0.047444522
104	0x3cf68fc3	0.030097848
105	0x3d41947a	0.04726074
106	0xbcd8799a	-0.026425172
107	0x3d32c5cb	0.04364566
108	0x3a49ea00	0.000770241
109	0xbd248cb8	-0.040173262
110	0x3ce77fd7	0.028259201
111	0x3a4e759a	0.00078758004
112	0xbaee9400	-0.0018202066
113	0xbc86694a	-0.016407628
114	0x3d4791e2	0.04872311
115	0x3c6993c0	0.014256418
116	0x3d25dd3d	0.040494192
117	0x3d3a27d7	0.04544815
118	0xbcbd9887	-0.02314402
119	0x3acc8a67	0.0015605212

fc2.weight f4 [84, 120]
0	0xbccefdf1	-0.025267573
1	0xbd9d3d74	-0.07677737
2	0xbda3cc15	-0.0799791
3	0x3d48903e	0.048965685
4	0x3d767be6	0.060176753
5	0xbd1b8ee6	-0.037978075
6	0xbd288893	-0.041145872
7	0xbcb0d97e	-0.021588083
8	0xbd77f561	-0.060536746
9	0x3c4bf21a	0.012447858
10	0x3d706f9f	0.0587002
11	0x3d673136	0.056443416
12	0xbd9eec34	-0.07759896
13	0x3d260913	0.040535998
14	0xbd00fccd	-0.03149109
15	0xbda889d7	-0.08229416
16	0xbcd53897	-0.02602796
17	0xbdb3d113	-0.08780112
18	0xbce4e255	-0.027939955
19	0x3da3995b	0.079882346
20	0x3d95e6d3	0.07319417
21	0xbd37dc29	-0.044887695
22	0x3cace997	0.021107478
23	0xbd80a233	-0.06280937
24	0xbda93de3	-0.08263757
25	0xbda173ae	-0.07883392
26	0xbd7f2534	-0.06229134
27	0x3d43e92a	0.047829784
28	0xbcffb89f	-0.031215964
29	0x3cfc89d1	0.030827435
30	0xbd9d639b	-0.07685014
31	0x3d1e4a34	0.038644984
32	0xbdb00dd6	-0.08596389
33	0x3d8f8748	0.07008225
34	0xbc9e6b8c	-0.019338392
35	0x3bf6e26f	0.007534317
36	0x3cb91e41	0.022597434
37	0xbba61f47	-0.0050696465
38	0xbdb11efc	-0.08648488
39	0x3ce68ae8	0.028142408
40	0xbd4109aa	-0.047128357
41	0xbc0e4ae2	-0.008684846
42	0x3d821677	0.06351941
43	0xbd06d86b	-0.032921236
44	0xbd1fb27b	-0.03898857
45	0xbd185fcf	-0.037200745
46	0x3d3000ac	0.04296939
47	0xbd0c8f9d	-0.034316648
48	0x3d8e362d	0.06943927
49	0x3d966e52	0.07345261
50	0xbd09deb7	-0.033659663
51	0xbcd8dfb7	-0.026473863
52	0x3d8dbe32	0.069210425
53	0x3d8c9340	0.06864023
54	0x3cae65e4	0.02128882
55	0x3cee7a8c	0.02911117
56	0xbc4fb9ca	-0.012678573
57	0x3c377663	0.011197659
58	0x3d34ba74	0.044123128
59	0xbd4f7b71	-0.050654832
60	0xbd73d4e7	-0.05952921
61	0x3c938c45	0.018011222
62	0xbdb4943c	-0.08817336
63	0x3da30089	0.079590864
64	0xbd873fcf	-0.066039674
65	0xbd704301	-0.05865765
66	0xbd6ba21c	-0.057527646
67	0x3d32b28a	0.0436273
68	0x3baee9df	0.005337938
69	0x3d8e9822	0.06962611
70	0x3d80ea18	0.0629465
71	0xbd98c557	-0.074595146
72	0xbcf22261	-0.029557409
73	0x3d487cac	0.04894702
74	0xbb260cbf	-0.0025337187
75	0xbcb92b67	-0.022603704
76	0x3db7654d	0.089548685
77	0x3dab76fd	0.083723046
78	0x3d994a9a	0.07484932
79	0x3c0d58d5	0.008627136
80	0xbb883a3a	-0.004157332
81	0x3d9e4481	0.0772791
82	0xbd571a99	-0.0525156
83	0xbc8b7341	-0.01702273
84	0x3da697c6	0.08134417
85	0xbd424ece	-0.047438435
86	0x3c579ed7	0.013160429
87	0xbd568b93	-0.052379202
88	0xbc2e2fdf	-0.010631531
89	0x3d9e7791	0.07737649
90	0x3d8fb71b	0.070173465
91	0xbce2052f	-0.027590362
92	0xbd854ffb	-0.06509396
93	0xbcc42d92	-0.02394751
94	0x3d89d5d2	0.06730236
95	0xbd100c12	-0.03516776
96	0x3cea3b0b	0.028592607
97	0xbd5f9940	-0.05458951
98	0xbd2920a5	-0.041290898
99	0x3c84bc8c	0.016203187
100	0xbd6c8562	-0.05774439
101	0xbd756114	-0.059907034
102	0xba522494	-0.0008016315
103	0xbd6d2a1c	-0.057901487
104	0xbd7b567c	-0.061361775
105	0xbdaec9e7	-0.085346036
106	0xbd4a14c5	-0.049336214
107	0x3d86d4f3	0.065835856
108	0x3d0c36a8	0.03423181
109	0xbcb1905d	-0.021675283
110	0x3d9b408d	0.075806715
111	0xba9f9412	-0.0012174866
112	0x3d9ee127	0.07757788
113	0x3cf6ee48	0.030142918
114	0xbd21916b	-0.039445322
115	0xbcc569be	-0.024098273
116	0xbd4e42c5	-0.050356645
117	0xbc7780dd	-0.015106407
118	0xbd708f06	-0.058730148
119	0xbd6d7bbe	-0.057979338
120	0xbc9520ac	-0.018204056
121	0xbcb2060e	-0.021731403
122	0x3da65c42	0.081230655
123	0x3db25d8a	0.087092474
124	0x3d928557	0.07154339
125	0x3cca10e1	0.024666252
126	0xbd7ff1ca	-0.062486447
127	0xba54b693	-0.0008114364
128	0x3d6835f9	0.056692097
129	0x3d2bf973	0.04198594
130	0x3c00c702	0.007859947
131	0x3d6c0c10	0.05762869
132	0x3d09505b	0.0335239
133	0x3cff86c1	0.031192185
134	0x3d181ab1	0.03713483
135	0x3c8fdeb1	0.017562242
136	0xbc8f91df	-0.017525611
137	0xbd17cacb	-0.037058633
138	0x3c5a8a12	0.013338583
139	0xbd198739	-0.037482474
140	0x3d44de30	0.048063457
141	0x3be1d897	0.0068922746
142	0xbd614a31	-0.055002395
143	0xbda406a0	-0.08009076
144	0x3d344f86	0.044021152
145	0x3d2680c0	0.04065013
146	0x3d2846b9	0.04108307
147	0xbd40d03e	-0.047073595
148	0x3d3aaeaa	0.04557673
149	0xbcd2263f	-0.025653003
150	0x3d3a964a	0.045553483
151	0xbd95a72f	-0.07307278
152	0xbc0ef949	-0.008726426
153	0x3d465a75	0.04842611
154	0x3d4e2407	0.050327327
155	0xbc23f31d	-0.010006693
156	0xbd9328ca	-0.07185514
157	0xbd092954	-0.03348668
158	0x3d52ad42	0.051434763
159	0xbdadc084	-0.08483985
160	0xbd8fa570	-0.070139766
161	0x3d67d333	0.0565979
162	0x3c9970ca	0.01873054
163	0xbdae4c6e	-0.085106716
164	0x3cfbda10	0.030743629
165	0x3bff56f2	0.007792347
166	0xbd46795e	-0.04845559
167	0x3bb96cec	0.0056587365
168	0x3b23afe1	0.0024976658
169	0x3ccb42ce	0.024812128
170	0x3d95c738	0.073133886
171	0xbb4b8936	-0.0031057126
172	0xbd8c5bdc	-0.06853458
173	0x3d394d28	0.045239598
174	0xbd01cf0f	-0.031691607
175	0x3db09785	0.0862265
176	0x3cab4929	0.020908909
177	0x3daf6241	0.08563662
178	0xbb05beaf	-0.0020407846
179	0x3d4abf20	0.049498677
180	0x3b3c2abd	0.0028711997
181	0xbd134615	-0.035955507
182	0x3db88240	0.09009218
183	0xbd977871	-0.07396019
184	0x3c8be023	0.01707465
185	0xbccd67ec	-0.025073968
186	0xbc1b80e3	-0.009491178
187	0x3d7a012d	0.061036278
188	0x3da25f74	0.079283625
189	0xbd970458	-0.073738754
190	0xbd8a46e0	-0.067517996
191	0xbd984f72	-0.07437028
192	0x3d5f6243	0.05453707
193	0x3c99ca98	0.018773362
194	0xbda1b5ed	-0.07896028
195	0x3a81b5dd	0.0009896118
196	0xbd4d57de	-0.050132625
197	0xbd78876e	-0.06067603
198	0x3da145ff	0.07874679
199	0xbd7ee48d	-0.06222968
200	0xbaf386e0	-0.0018579625
201	0xbcd44d87	-0.025915874
202	0x3c953c1b	0.018217137
203	0x3db796d1	0.08964313
204	0x3d34bfc3	0.04412819
205	0xbd9da6c8	-0.076978266
206	0xbd0f420d	-0.0349751
207	0xbd26890c	-0.04065804
208	0xbac07fb1	-0.0014686493
209	0xbcc3988b	-0.02387645
210	0x3d5caa30	0.05387324
211	0xbda2fcf9	-0.07958407
212	0xbce4093a	-0.02783643
213	0xbd2c1507	-0.04201224
214	0xbd6b3826	-0.057426594
215	0xbcabf072	-0.020988677
216	0x3d0e58ee	0.03475278
217	0xbbabc42c	-0.0052418914
218	0x3d97e56d	0.07416806
219	0x3c89191a	0.016735602
220	0xbd611c32	-0.05495853
221	0x3d1fc901	0.03901005
222	0xbc51a784	-0.0127962865
223	0x3d9d4bad	0.0768045
224	0x3cd57ad8	0.026059553
225	0xbaf5eb98	-0.0018762229
226	0xbdbac559	-0.09119672
227	0xbd881515	-0.06644646
228	0xbd74ea04	-0.059793487
229	0x3da5a933	0.08088913
230	0xbcee0579	-0.029055344
231	0x3cf0e7ea	0.02940746
232	0xbdb9406a	-0.09045489
233	0xbd9de582	-0.07709791
234	0x3db2565c	0.08707878
235	0x3c88af53	0.016685164
236	0xbce2cceb	-0.027685603
237	0xbd4a4e0b	-0.049390834
238	0x3db0fc5b	0.08641883
239	0xbc9d51e7	-0.019204093
240	0xbd829909	-0.063768454
241	0x3d6a7c3f	0.057247397
242	0x3ccdd543	0.025126105
243	0x3d9f2ab0	0.07771814
244	0x3d39fb8c	0.04540591
245	0x3d85d91b	0.0653555
246	0x3c83756b	0.0160472
247	0xbc9ff6d2	-0.019526873
248	0x3da30848	0.07960564
249	0x3d9f20ed	0.07769952
250	0xbdad39d6	-0.08458297
251	0xbd651c4c	-0.05593519
252	0x3d99cb1a	0.07509442
253	0x3d7fe76e	0.062476568
254	0x3c90282d	0.017597282
255	0x3dae1075	0.08499233

fc2.bias f4 [84]
0	0x3d9d63aa	0.07685025
1	0x3bccf9bd	0.006255357
2	0x3cc88336	0.024476629
3	0x388d4a23	6.737213e-05
4	0xbc8c901e	-0.017158564
5	0x3d836114	0.064150006
6	0xbd72cb54	-0.05927594
7	0x3c5691f4	0.013096321
8	0x3d914287	0.07092767
9	0x3c07ea7c	0.0082956515
10	0xbd92dd40	-0.07171106
11	0x3db62727	0.088941865
12	0x3d32804f	0.043579396
13	0xbacba1ad	-0.0015535854
14	0xbd76adc0	-0.060224295
15	0xbd820981	-0.06349469
16	0xbd3c799f	-0.046014424
17	0x3d8658c5	0.065599
18	0x3d9e8235	0.07739679
19	0xbcf65fab	-0.030074915
20	0xbd19bd64	-0.037534133
21	0x3d290476	0.04126402
22	0x3d6a82e9	0.057253752
23	0x3d85ae16	0.06527345
24	0xbdb388b5	-0.08766309
25	0xbd39b18c	-0.045335338
26	0xbdb3f54e	-0.087870225
27	0x3d71eaa3	0.059061658
28	0xbd72682d	-0.05918138
29	0x3c99d2d5	0.01877729
30	0x3d7309c7	0.059335496
31	0x3d9a0afc	0.07521626
32	0xbc451790	-0.0120295435
33	0x3c703e42	0.014663281
34	0xbcdc9716	-0.026927512
35	0x3c33aa97	0.010965965
36	0x3daf245a	0.085518554
37	0x3ccc4211	0.024933847
38	0xbce87cfe	-0.028379913
39	0x3cd07b11	0.025449308
40	0x3d3174a2	0.04332412
41	0x3d46593f	0.048424955
42	0xbd991b18	-0.07475871
43	0xbd7b7843	-0.061393987
44	0x3c5b98eb	0.013403158
45	0x3d1afedf	0.03784072
46	0xbd046d67	-0.032330897
47	0xbd537e8e	-0.051634364
48	0x3d37bace	0.044855885
49	0xbd535979	-0.051599
50	0x3cbb9e97	0.02290277
51	0x3dabccec	0.08388695
52	0xbd67716b	-0.05650465
53	0xbd99c2e6	-0.07507877
54	0xbd67d95c	-0.056603774
55	0xbd96107a	-0.073273614
56	0x3cd07e83	0.02545095
57	0x3c9ef743	0.019405013
58	0xbd4c0f27	-0.049819138
59	0x3d666ffa	0.056259133
60	0xbd22f740	-0.039786577
61	0x3d58ad93	0.05289991
62	0xbd51d3f6	-0.051227532
63	0xbd6bd5bf	-0.05757689
64	0x3d5e85b6	0.054326735
65	0xbda5f191	-0.08102716
66	0xbca21dc2	-0.01978958
67	0xbc81b59c	-0.015833668
68	0x3cffd30c	0.031228565
69	0xbd9f61ce	-0.07782327
70	0xbdb7bdbc	-0.08971736
71	0xbd4200e4	-0.04736413
72	0x3d3cd6b6	0.0461032
73	0xbdb239fd	-0.08702467
74	0xbc967c97	-0.018369956
75	0xbdb2ad9f	-0.08724522
76	0xbc1f1db7	-0.009711674
77	0xba9d8f62	-0.0012020881
78	0xbc1ee3b4	-0.009697843
79	0x3db55371	0.08853806
80	0x3d629c80	0.05532503
81	0x3ccc7322	0.024957243
82	0xbd3a872c	-0.045539066
83	0xbd39ca0c	-0.045358703

fc3.weight f4 [10, 84]
0	0xbcabfec7	-0.02099551
1	0xbddc2ef7	-0.10751145
2	0x3d7a332e	0.061083965
3	0xbd8ddb63	-0.0692661
4	0x3dacc7c9	0.084365435
5	0xbdb3a2d6	-0.08771293
6	0x3bd541dd	0.0065080957
7	0xbd3afc47	-0.045650747
8	0x3d1d72f9	0.038439725
9	0x3d506119	0.05087385
10	0x3c5f2d0c	0.01362158
11	0x3d215a62	0.039392836
12	0x3dc666bf	0.09687566
13	0x3b841972	0.0040313536
14	0x3d882d40	0.06649256
15	0xbd03a8d1	-0.032143418
16	0x3cfe932f	0.031076042
17	0x3db96786	0.09052949
18	0xbd23dd98	-0.04000625
19	0xbd6ed975	-0.058312852
20	0xbc79a12a	-0.015236178
21	0xbc8641cf	-0.016388802
22	0xbd0550c6	-0.032547735
23	0x3d9b74c6	0.07590632
24	0xbd0a683e	-0.03379082
25	0xbc7f5b0b	-0.015585671
26	0xbdaa67e9	-0.083206005
27	0x3d67f65e	0.05663144
28	0xbc93e632	-0.018054102
29	0x3db927c5	0.090407886
30	0x3d9faf6b	0.0779713
31	0xbdc1859b	-0.09449311
32	0x3dc8df84	0.09808257
33	0xbd878edf	-0.066190474
34	0xbddbb52a	-0.10727914
35	0x3db437ed	0.087997295
36	0x3c194b1b	0.009356285
37	0x3da7eda6	0.08199625
38	0x3d962de5	0.073329724
39	0x3c39d189	0.011341461
40	0xbd96bf4d	-0.073607065
41	0x3dc41e3b	0.095760785
42	0xbcd178f2	-0.025570367
43	0x3dab3582	0.08359815
44	0x3d8633cf	0.065528505
45	0x3d7d79b2	0.061883636
46	0xbc86f338	-0.016473398
47	0x3d022113	0.031769823
48	0x3a353c9e	0.0006913635
49	0xbdde3028	-0.10849029
50	0xbc969ea3	-0.01838619
51	0xbccdae8f	-0.02510765
52	0xbd888f6d	-0.06667981
53	0x3d9d3b75	0.07677356
54	0xbdd08e6d	-0.101834156
55	0x3ca8c6f4	0.02060268
56	0xbdcba7ec	-0.09944138
57	0xbdd37e80	-0.10326862
58	0x3d85aaca	0.06526716
59	0xbd4f7e70	-0.05065769
60	0xbd83427b	-0.064091645
61	0xbc465973	-0.012106287
62	0xbc75531c	-0.014973428
63	0x3dbfa808	0.09358221
64	0xbc915026	-0.017738413
65	0x3db03a69	0.08604891
66	0x3da4093f	0.08009576
67	0xbc840812	-0.01611713
68	0x3cf2dc45	0.029646048
69	0x3dd87998	0.10570067
70	0x3dd8196d	0.105517246
71	0xbc86f324	-0.01647336
72	0xbc33cb3a	-0.010973746
73	0xbcda53d9	-0.02665131
74	0x3d165096	0.036697946
75	0xbdc6c3d3	-0.09705319
76	0xbd3fa9e9	-0.0467929
77	0xbdd5279d	-0.10407946
78	0x3d385cb3	0.04501028
79	0xbd0def92	-0.0346523
80	0x3dba9c25	0.091118135
81	0xbd293494	-0.041309908
82	0xbd37eb10	-0.044901907
83	0x3d79946a	0.060932554
84	0x3d7c10a8	0.061539322
85	0x3dd9a3ba	0.106269315
86	0xbdc3c9e7	-0.09559994
87	0xbddd83b8	-0.10816139
88	0xbdcaab45	-0.09895948
89	0x3db74faf	0.08950745
90	0xbdb80a23	-0.089863084
91	0xbd94c41a	-0.07263966
92	0xbcb49a90	-0.022046357
93	0xbd8af8af	-0.06785714
94	0x3dc63d76	0.096796915
95	0x3d8fd375	0.07022754
96	0x3dad3902	0.08458139
97	0x3dadb382	0.08481504
98	0x3db1ccba	0.086816266
99	0xbccc05d3	-0.024905121
100	0xbc838649	-0.016055243
101	0xbd324cc2	-0.043530233
102	0x3d8cd96b	0.06877407
103	0xbc40a9f0	-0.011759266
104	0xbcdab1a1	-0.026696028
105	0xbd11cebb	-0.035597544
106	0x3c84cf46	0.016212117
107	0x3abf3634	0.0014588297
108	0xbcfa3351	-0.030542048
109	0xbdca38fa	-0.09874149
110	0xbd5d7131	-0.054063026
111	0xbbc5c8c5	-0.0060358965
112	0x3dc34bb2	0.09535922
113	0x3c05a23d	0.008156356
114	0xbdb62e84	-0.08895591
115	0xbcaa33a6	-0.020776581
116	0xbd7f4eac	-0.062330887
117	0xbdbcb3b8	-0.09213966
118	0x3dabd369	0.08389933
119	0x3d5d8a84	0.054087177
120	0x3b335784	0.0027365396
121	0x3d0b7d1c	0.03405486
122	0xbd8ce284	-0.06879142
123	0x3d9f7da2	0.077876344
124	0x3c807695	0.015681544
125	0x3d19de41	0.037565473
126	0xbcb9979a	-0.022655297
127	0x3dc34992	0.09535517
128	0xbdb234a6	-0.08701448
129	0xbcb4d0ca	-0.022072215
130	0xbd9981b7	-0.07495444
131	0x3ddd7591	0.1081344
132	0x3dad2c3f	0.08455705
133	0xbc75e5f8	-0.015008442
134	0xbb8c9075	-0.0042896816
135	0xbd8ed482	-0.069741264
136	0x3bf8ac0d	0.0075888694
137	0xbd5e874c	-0.054328248
138	0x3d74b26f	0.05974048
139	0x3d841b5b	0.0645053
140	0x3d17447c	0.036930546
141	0x3da3b951	0.07994331
142	0x3ca8a04d	0.02058425
143	0xbdcf1d46	-0.10113005
144	0xbd8ff7e9	-0.07029707
145	0x3d433072	0.047653623
146	0xbd2eee09	-0.042707477
147	0x3dbb84b3	0.0915617
148	0xbd43f4ae	-0.047840767
149	0x3d9cfe8a	0.07665737
150	0xbd3a4f00	-0.045485497
151	0xbd6f9a14	-0.05849655
152	0x3d1d4edf	0.038405295
153	0xbdc84ec4	-0.09780648
154	0xbc5301a8	-0.012878813
155	0xbd6401f5	-0.05566593
156	0xbdaa70cc	-0.083222955
157	0x3dae5ea0	0.08514142
158	0xbc90fcd8	-0.01769869
159	0xbdaeca38	-0.08534664
160	0xbd245482	-0.040119655
161	0xbc8782ba	-0.016541827
162	0x3d09a8aa	0.033608116
163	0xbc96d893	-0.018413818
164	0x3d6c4c21	0.05768979
165	0xbda5e46c	-0.08100209
166	0x3d8d6d82	0.069056526
167	0x3cfb1697	0.03065042
168	0x3dca85f9	0.098888345
169	0x3d5aa633	0.053381156
170	0x3d84f9d2	0.06492962
171	0x3d8e9194	0.069613606
172	0x3d98c738	0.07459873
173	0x3d1999de	0.037500255
174	0x3db46c00	0.08809662
175	0xbcb3581e	-0.021892603
176	0xbd8b2c78	-0.06795591
177	0x3d71a770	0.05899757
178	0xbb880965	-0.0041515105
179	0x3d7b2901	0.0613184
180	0xbddd712d	-0.10812602
181	0x3d34e87e	0.044167034
182	0xbdce9431	-0.10086859
183	0xbdbb1b3e	-0.091360554
184	0x3cfffd9e	0.031248864
185	0x3d297449	0.041370664
186	0x3d8d3fb7	0.06896918
187	0xbcc3defb	-0.023910036
188	0xbda4b8bd	-0.080430485
189	0x3d518a87	0.0511575
190	0x3d8330ea	0.06405814
191	0xbad1d6b3	-0.001600942
192	0x3ca9a29e	0.020707425
193	0xbd18ee30	-0.03733653
194	0x3d97d7f2	0.07414235
195	0x3d8c413d	0.06848381
196	0x3d6a2669	0.057165537
197	0x3d743eb6	0.05963012
198	0x3dd3ca95	0.10341374
199	0x3dc2161b	0.094768725
200	0xbd650acb	-0.055918496
201	0x3c7b69c9	0.015345045
202	0x3d0a6bc0	0.033794165
203	0x3db8a001	0.09014893
204	0x3c96c19c	0.018402867
205	0xbd11443e	-0.03546547
206	0xbdc4f33b	-0.09616705
207	0x3d99de81	0.075131424
208	0x3da71883	0.08158972
209	0x3a0b5427	0.0005314969
210	0x3cc49df3	0.024001097
211	0x3aa522eb	0.0012598907
212	0x3d01235f	0.031527873
213	0x3dc6f5e6	0.0971487
214	0xbd5e18ee	-0.054222994
215	0x3d74adb0	0.059735954
216	0x3d1e643a	0.038669802
217	0xbdcc6a07	-0.099811606
218	0x3ddcdd57	0.10784405
219	0x3c8599eb	0.016308745
220	0x3b88cd3f	0.004174858
221	0xbda2c823	-0.07948329
222	0xbdcd97df	-0.10038733
223	0x3dc758ef	0.097337596
224	0xbc57a841	-0.013162673
225	0xbdbd56f1	-0.092450984
226	0xbd7a27d5	-0.061073143
227	0xbdd13184	-0.102145225
228	0x3d25d697	0.040487852
229	0x3d58076d	0.052741457
230	0xbc00cf74	-0.007861961
231	0xbb681eb2	-0.0035418686
232	0x3d1d2d0c	0.03837304
233	0x3d309f21	0.043120507
234	0xbce73606	-0.028224003
235	0xbd9d34d8	-0.07676095
236	0xbd91abdd	-0.071128584
237	0xbdb08f51	-0.086210854
238	0xbd48a50e	-0.048985533
239	0xbd9c36a9	-0.07627613
240	0xbce7da03	-0.028302198
241	0xbdde6399	-0.108588405
242	0x3d6bbf25	0.057555337
243	0x3d2e8152	0.0426038
244	0x3d30eb7e	0.043193333
245	0xbdae3e56	-0.085079834
246	0xbd3b1938	-0.045678347
247	0xbd91f968	-0.071276486
248	0x3d9150e6	0.07095508
249	0x3dd7cf64	0.105376035
250	0xbc01c28c	-0.007919919
251	0xbca35d5a	-0.019941974
252	0x3d086626	0.03330054
253	0x3c6224c5	0.013802712
254	0x3d4ca2f8	0.049960107
255	0xbd43d667	-0.047811892

fc3.bias f4 [10]
0	0x3bd6f084	0.0065594334
1	0x3cadd91a	0.021221686
2	0xbdb91636	-0.090374395
3	0xbd11cd65	-0.03559627
4	0xbccf1028	-0.025276259
5	0x3c29f7b9	0.010374003
6	0x3d4f1389	0.05055574
7	0x3dc60507	0.09668928
8	0xbd874b73	-0.06606188
9	0xbcc3ee87	-0.02391745
